ML/models/takeoff_CFM56-7.pt (torch, 92879 bytes, 8 tensors)

layer1.weight f4 [141, 47]
0.1070038 0.13936768 0.085563354 0.08497798 -0.025941782 0.122382775 -0.069371425 -0.124433994
-0.06226499 0.14979886 -0.14507405 0.12164206 -0.07811713 -0.008118321 0.0732742 0.32738554
0.123285204 -0.06434868 -0.0025501733 -0.14805736 -0.023239503 -0.10119126 -0.069784224 -0.017121585
0.060886588 -0.03929106 0.086097725 -0.11985792 -0.052176725 0.116790794 -0.015862307 -0.031612247
-0.3401015 0.10150506 0.02607585 0.12904187 -0.13568415 -0.025772909 -0.015840152 0.08471876
0.061974756 -0.13230558 0.13834515 0.07332797 0.07705851 -0.02817864 0.0184251 -0.09381086
-0.08070903 0.0898193 0.10322937 -0.023714915 0.16798064 0.142438 0.14897059 0.050038833
-0.03515596 0.09737162 0.08828612 0.017395651 -0.0775669 -0.089338705 0.20637654 -0.014114749
-0.06592745 -0.005219178 0.14435357 0.070480414 -0.038966265 -0.029411465 -0.0685471 -0.0999741
-0.016575858 0.028901044 -0.008777229 -0.0639783 0.12943076 0.0769648 -0.0055619953 -0.11690141
-0.09466857 0.21593858 0.19869514 -0.05474254 -0.101831466 0.028133744 -0.02975587 0.07924127
0.02318179 0.0058458094 -0.12445095 -0.13190669 0.11924742 -0.068951264 -0.12496744 -0.12051724
0.0848118 -0.022892714 0.07108499 -0.050674982 0.07770862 0.06548782 -0.12716645 -0.015853938
0.063333794 -0.113798834 0.02164155 -0.09294481 0.023493003 0.08262265 0.098929256 -0.10865887
-0.14798883 0.13226564 0.06470973 0.0053692586 -0.13965268 -0.13494262 0.039338063 0.02006833
-0.06816062 0.006297696 -0.028077155 0.06888471 -0.008499232 0.023801016 0.02682379 -0.082771525
-0.014111217 -0.13251083 0.12855305 0.033718634 0.14388818 0.09260206 -0.047359653 0.064543
0.15230222 -0.13113733 0.042317722 -0.09972042 0.01937687 -0.073148146 -0.10332565 -0.11796806
0.09426471 0.009513496 0.1487772 -0.016189206 -0.13239148 -0.06981919 -0.029674869 -0.056571662
0.011831103 0.086093746 -0.1254834 -0.09988331 0.05247647 0.03477785 0.005594826 0.09966366
0.14956927 0.062071186 0.02343865 -0.015254507 0.0015553036 0.011437941 0.035024613 -0.11934092
-0.028031373 -0.008518774 -0.054683153 0.06637051 0.11871181 0.20794445 -0.09620903 0.1490359
0.07270464 0.115158595 -0.14304698 -0.10437415 0.11576635 0.032603394 0.0782707 0.0186347
-0.038994115 0.122879885 -0.0379459 -0.074853644 0.054831486 0.025179762 -0.12809241 -0.05775697
0.016749116 -0.021020073 0.0080797635 -0.050497677 0.06263759 -0.02415543 -0.15121813 0.062450886
0.027228035 0.12403318 -0.06820766 0.15774259 0.03564566 0.07993444 -0.02855096 0.13016261
0.15187621 -0.17057082 -0.12064858 0.02696973 0.084614575 0.1439608 -0.16525768 -0.02787651
0.07214928 0.13816564 -0.064095706 0.031064715 -0.012942903 -0.08312541 -0.05304795 -0.012762037
0.11412498 -0.1768526 0.09214621 -0.051897988 -0.16930974 -0.08437237 0.03995421 0.08505999
0.07596453 0.10644419 -0.08092365 0.10159701 0.025454346 -0.0543055 -0.08425393 -0.09472599
-0.07754173 0.08018011 -0.07929599 0.087135 -0.059467334 -0.03620384 0.03202295 -0.1098831
0.117520474 0.021588765 -0.036241755 0.11359626 -0.1516402 -0.058177806 -0.08602878 -0.02933089
00000000: cf24 db3d 67b6 0e3e d73b af3d ef08 ae3d
00000010: dc83 d4bc d2a3 fa3d 9b12 8ebd 40d7 febd
00000020: 9309 7fbd df64 193e 4b8e 14be 791f f93d
00000030: e0fb 9fbd b502 05bc c910 963d 149f a73e
00000040: f47c fc3d 3ec9 83bd cf20 27bb 599c 17be
00000050: c560 bebc 5d3d cfbd 08eb 8ebd 9142 8cbc
00000060: 3764 793d aaef 20bd 0154 b03d 1278 f5bd
00000070: 43b7 55bd 0330 ef3d abf1 81bc d87b 01bd
00000080: c921 aebe e3e1 cf3d 059d d53c 8d23 043e
00000090: c9f0 0abe b521 d3bc 35c3 81bc 0781 ad3d
000000a0: 3ed9 7d3d 1d7b 07be 5aaa 0d3e fa2c 963d
000000b0: dad0 9d3d e4d6 e6bc 3cf0 963c e81f c0bd
000000c0: c74a a5bd 2ef3 b73d ec69 d33d c845 c2bc
000000d0: 1e03 2c3e 44db 113e bf8b 183e 85f5 4c3d
000000e0: b2ff 0fbd c66a c73d 5acf b43d 5381 8e3c
000000f0: 65db 9ebd 36f7 b6bd 5f54 533e 8c41 67bc
00000100: f904 87bd a305 abbb 6cd1 133e 0958 903d
00000110: 179b 1fbd 50f0 f0bc 6c62 8cbd 39bf ccbd
00000120: 18ca 87bc e2c1 ec3c 5ece 0fbc 0e07 83bd
00000130: 7f89 043e b99f 9d3d 6641 b6bb 026a efbd
00000140: 98e1 c1bd 011f 5d3e bd76 4b3e b739 60bd
00000150: 048d d0bd bd78 e63c 95c2 f3bc 3f49 a23d
00000160: bde7 bd3c 348e bf3b 24e0 febd 8c12 07be
00000170: fe37 f43d 5236 8dbd eeee ffbd bed1 f6bd
00000180: cfb1 ad3d 8089 bbbc 0295 913d 9290 4fbd
00000190: b225 9f3d 7a1e 863d ec37 02be 1ee0 81bc
000001a0: 26b5 813d 5d0f e9bd 9f49 b13c d959 bebd
000001b0: 6674 c03c 1036 a93d 6c9b ca3d 8b88 debd
000001c0: 628a 17be a570 073e 8986 843d 9bf0 af3b
000001d0: 1d01 0fbe 662e 0abe f320 213d 5766 a43c
000001e0: cc97 8bbd e75c ce3b 1002 e6bc 6d13 8d3d
000001f0: 5d40 0bbc 59fa c23c 91bd db3c 1e84 a9bd
00000200: bc32 67bc ebb0 07be 69a3 033e 8d1c 0a3d
00000210: 6c57 133e 26a6 bd3d 32fc 41bd 1f2f 843d
00000220: 1df5 1b3e dd48 06be 5955 2d3d 383a ccbd
00000230: 3ebc 9e3c b2ce 95bd 669c d3bd 3d99 f1bd
00000240: db0d c13d 7fde 1b3c 0d59 183e 3a9f 84bc
00000250: a291 07be 5dfd 8ebd b618 f3bc b0b7 67bd
00000260: 3ed7 413c eb51 b03d b87e 00be 9f8f ccbd
00000270: 91f1 563d 3873 0e3d cd54 b73b 761c cc3d
00000280: b028 193e 5b3e 7e3d 6902 c03c 0aee 79bc
00000290: 54db cb3a 3466 3b3c f875 0f3d 0369 f4bd
000002a0: 0da2 e5bc 5492 0bbc 71fb 5fbd 43ed 873d
000002b0: 2d1f f33d 64ef 543e 3d09 c5bd de9c 183e
000002c0: 2ce6 943d 45d8 eb3d e87a 12be 1dc2 d5bd
000002d0: e816 ed3d 238b 053d 644c a03d cca7 983c
000002e0: 4bb8 1fbd 73a8 fb3d 296d 1bbd de4c 99bd
000002f0: fb96 603d ca45 ce3c a82a 03be 9392 6cbd
00000300: 7135 893c 4a32 acbc fc60 043c a7d6 4ebd
00000310: 2348 803d 9ce1 c5bc edd8 1abe 80cc 7f3d
00000320: 540d df3c 1c05 fe3d 75b0 8bbd 4687 213e
00000330: 2f01 123d abb4 a33d b4e3 e9bc 5949 053e
00000340: 7085 1b3e 1eaa 2ebe 9a16 f7bd a0ef dc3c
00000350: 684a ad3d 766a 133e 4f39 29be 475d e4bc
00000360: 00c3 933d 4b7b 0d3e 9c44 83bd 6e7b fe3c
00000370: 780e 54bc a83d aabd cf48 59bd dd17 51bc
00000380: 5cba e93d d918 35be 27b7 bc3d fc92 54bd
00000390: 885f 2dbe 6ccb acbd 07a7 233d ef33 ae3d
000003a0: 4b93 9b3d 69ff d93d 4cbb a5bd 1812 d03d
000003b0: a285 d03c 726f 5ebd 538d acbd b3ff c1bd
000003c0: 33ce 9ebd 7835 a43d f065 a2bd d673 b23d
000003d0: 0594 73bd 7a4a 14bd 7f2a 033d 640a e1bd
000003e0: 93ae f03d ecda b03c 3c72 14bd 28a5 e83d
000003f0: 9247 1bbe da4b 6ebd db2f b0bd 5647 f0bc

layer1.bias f4 [141]
0.1179592 0.11685902 0.07053013 0.065730974 0.14845009 -0.07592853 -0.010476745 -0.08574656
-0.06040046 0.06961441 0.08483817 -0.04195597 0.068749845 -0.005887766 -0.07479769 -0.028690154
-0.038575724 -0.0380813 -0.13178124 -0.108250044 -0.0368288 -0.07470382 0.19362174 0.107737884
0.120605424 0.10461442 0.014335238 -0.01984219 0.053126328 0.021511244 -0.02803324 0.017345496
0.09429308 0.09764496 0.060075875 -0.030916536 -0.08471964 0.12480348 -0.12081445 -0.004736754
0.15725718 -0.10590004 0.09868134 -0.14291754 -0.08186188 0.08583618 -0.12235242 0.1215451
0.15213312 0.13812672 0.015280387 0.025454422 -0.091817215 -0.09147164 0.051940106 -0.11484857
-0.08132924 -0.004770613 -0.061310496 -0.10039442 -0.0068740463 -0.07303275 0.033898003 -0.08299932
-0.116721846 0.009685225 -0.047105886 0.017496627 0.09882096 0.09875134 0.032191653 -0.107216105
-0.07133021 -0.14619349 -0.14733575 0.21258147 -0.0914195 0.045630924 -0.05165465 0.1836042
-0.058431227 0.033279482 0.17120998 -0.16095635 -0.07289209 0.021752918 0.123998426 -0.08687311
0.08084401 -0.12848768 0.072641656 -0.1451907 -0.086699985 -0.069298245 0.15255386 -0.050294686
-0.06510623 0.043039694 0.13654877 0.13864014 0.14041252 -0.06207981 -0.19501528 0.011509011
-0.07691294 0.12673445 0.13562666 -0.040994197 -0.0146859875 0.037377305 0.17246188 0.00018259902
-0.13348721 -0.003411923 0.12182789 0.15195489 0.19214259 0.019288477 -0.011865106 0.056468982
0.018241232 0.029613828 0.060911626 0.1697034 -0.111880206 0.017132128 0.08190993 -0.1009689
0.03155198 0.0773443 -0.052302245 -0.039472032 0.060059287 0.16137987 0.07892644 0.032742646
0.19314025 0.006861003 -0.020448279 -0.04758373 -0.088570885
00000000: 9894 f13d c853 ef3d 1a72 903d f69d 863d
00000010: 4d03 183e 6b80 9bbd a7a6 2bbc e49b afbd
00000020: 7966 77bd 0092 8e3d a2bf ad3d 06da 2bbd
00000030: b8cc 8c3d 29ee c0bb 882f 99bd 9d07 ebbc
00000040: 9401 1ebd 23fb 1bbd a9f1 06be 33b2 ddbd
00000050: ccd9 16bd 51fe 98bd c744 463e aea5 dc3d
00000060: faff f63d 1640 d63d 59de 6a3c 178c a2bc
00000070: fe9a 593d 5938 b03c f7a5 e5bc 2418 8e3c
00000080: bb1c c13d 15fa c73d 1f12 763d ad44 fdbc
00000090: 7e81 adbd f898 ff3d 916d f7bd c636 9bbb
000000a0: 0708 213e 1fe2 d8bd 7119 ca3d fa58 12be
000000b0: 34a7 a7bd e1ca af3d e893 fabd a3ec f83d
000000c0: c9c8 1b3e 1771 0d3e 975a 7a3c cb85 d03c
000000d0: aa0a bcbd 7c55 bbbd 26bf 543d ba35 ebbd
000000e0: f28f a6bd cd52 9cbb b720 7bbd 979b cdbd
000000f0: ae3f e1bb 3292 95bd a2d8 0a3d 8cfb a9bd
00000100: dd0b efbd c7ae 1e3c 1af2 40bd 1655 8f3c
00000110: a562 ca3d 243e ca3d 65db 033d 1e94 dbbd
00000120: 9315 92bd bfb3 15be 2fdf 16be f5ae 593e
00000130: 263a bbbd 7ee7 3a3d d493 53bd bd02 3c3e
00000140: 9555 6fbd 1150 083d ab51 2f3e bed1 24be
00000150: 7348 95bd 2d33 b23c e3f2 fd3d 87ea b1bd
00000160: 8b91 a53d 4692 03be 26c5 943d dfac 14be
00000170: c38f b1bd 3dec 8dbd 1437 1c3e cd01 4ebd
00000180: 6a56 85bd 644a 303d 71d3 0b3e aef7 0d3e
00000190: 4dc8 0f3e 6647 7ebd 16b2 47be 4a90 3c3c
000001a0: 8884 9dbd adc6 013e b7e1 0a3e 88e9 27bd
000001b0: 7f9d 70bc f218 193d d999 303e 0d78 3f39
000001c0: dfb0 08be 929a 5fbb e780 f93d 109a 1b3e
000001d0: 07c1 443e de02 9e3c dd65 42bc 054c 673d
000001e0: a36e 953c b398 f23c 787e 793d bac6 2d3e
000001f0: 7321 e5bd ad58 8c3c 65c0 a73d c8c8 cebd
00000200: a63c 013d b066 9e3d e13a 56bd 6dad 21bd
00000210: ba00 763d c440 253e 2fa4 a13d 271d 063d
00000220: 8fc6 453e 44d2 e03b 2683 a7bc 28e7 42bd
00000230: a764 b5bd

layer2.weight f4 [94, 141]
0.08581887 0.03323209 -0.05111145 -0.016396075 0.04999049 0.026637215 0.08122968 0.064231776
-0.044420533 -0.0150438035 0.040026207 -0.020909082 -0.072885975 -0.0036922223 0.008378845 -0.008043924
0.011240807 -0.01852948 -0.009561381 0.025271932 -0.046281695 0.018749671 0.102235936 -0.032474164
-0.019713959 0.029263906 -0.008740179 0.012533999 0.055671427 0.048534144 0.0655701 -0.02521302
0.09724482 -0.044153247 -0.06440557 0.05465804 -0.04678926 -0.03193737 0.037952997 0.02197777
-0.02585622 -0.055844065 0.00946834 0.031570375 0.012896327 -0.0886012 0.059607256 -0.07420174
-0.06468643 0.054959368 -0.07841034 0.022091344 0.073917925 -0.03259368 0.06093789 -0.0323897
0.020914339 -0.03639422 0.09480367 -0.090355664 0.024742646 0.027534615 -0.076953076 -0.060844507
0.06711763 0.077971056 -0.07259396 -0.03156248 0.0191074 0.0062335697 0.0020767737 -0.023929577
-0.060498636 -0.07306549 -0.055826735 0.0945312 0.1014365 0.10162087 -0.010723698 -0.032554362
0.040888153 -0.05259605 -0.018220793 0.03952335 0.10642886 -0.016522292 -0.076657586 -0.07822766
-0.040684618 -0.07974508 0.065620705 0.004680079 0.10234281 -0.03782858 0.037230678 0.06301073
-0.06195395 0.05434013 -0.020562187 0.06031172 0.05172368 0.010701372 0.030315278 -0.006475036
0.0073363916 -0.06577988 -0.05962306 -0.0014502952 -0.069606535 0.02646604 -0.038030952 -0.10915541
0.075171165 0.028069885 -0.003715809 -0.08426606 -0.033133563 0.059278492 0.06504167 -0.0110023795
0.07633176 0.053457983 -0.049914144 -0.04909369 0.035669792 0.0010662206 -0.057526328 -0.0446641
0.021726107 0.03989418 0.03669676 -0.009395508 0.030054953 -0.0520159 -0.030247383 -0.029005999
0.09145888 -0.027975563 -0.036379486 0.026798822 0.07755677 0.06186782 0.041637234 -0.05832096
0.010589075 0.034574945 -0.06866676 0.003579427 0.05226241 -0.012296983 -0.032090865 -0.06829168
0.043186393 0.03593568 -0.012787289 -0.0064879954 -0.041247215 -0.036262948 0.03656915 -0.114885405
0.09463118 -0.054866984 0.011015049 0.05694613 -0.08840618 -0.046775658 -0.116799995 -0.087953225
-0.019766867 0.027905857 0.062116534 -0.0079427445 -0.046253078 -0.06513557 0.059424147 -0.040748164
-0.03568809 -0.020758169 -0.005979764 0.06324488 0.064333946 0.07260158 0.0017285101 0.061571322
0.051145285 0.07255834 -0.054913394 0.05345314 0.034237053 0.02688471 -0.09291083 -0.031282824
0.12768152 -0.022790922 -0.024649201 0.021111017 -0.092441 -0.040959932 0.025298744 -0.062847495
0.03694617 -0.030728647 -0.01640604 -0.08824906 -0.081273794 0.022311633 -0.015488718 0.038417194
-0.06268388 0.021963032 0.006580404 -0.01720274 0.062127158 0.03322138 -0.015595105 0.0038370271
-0.0036115837 0.08070247 -0.063950166 0.0070925215 -0.06509415 -0.0033476367 -0.07277666 -0.023128841
-0.1513538 0.058884155 0.023411028 -0.0002136475 -0.021877222 -0.03903092 0.025257109 0.0682238
0.038999896 -0.03049338 -0.04347232 -0.058181413 0.072372094 0.02694754 -0.021497622 0.022314064
0.051477663 -0.053812966 -0.013627448 0.024716066 -0.005573242 -0.07362198 -0.07532889 -0.0060052793
-0.045903325 -0.08151287 0.08283727 0.046326898 0.014954506 -0.021518264 -0.054381803 0.016355421
00000000: cec1 af3d 5f1e 083d 3d5a 51bd 1051 86bc
00000010: d4c2 4c3d 4a36 da3c bf5b a63d f38b 833d
00000020: 4ef2 35bd 497a 76bc 85f2 233d 8649 abbc
00000030: 3e45 95bd 36f9 71bb 6c47 093c aaca 03bc
00000040: 5d2b 383c 23cb 97bc 57a7 1cbc 1507 cf3c
00000050: e091 3dbd e998 993c 1361 d13d a103 05bd
00000060: 2b7f a1bc dcba ef3c f832 0fbc 675b 4d3c
00000070: b907 643d bdcb 463d 9e49 863d 898b cebc
00000080: 4b28 c73d 09da 34bd 11e7 83bd 1ce1 5f3d
00000090: 18a6 3fbd c2d0 02bd 9a74 1b3d b90a b43c
000000a0: 6cd0 d3bc bfbc 64bd 1921 1b3c f04f 013d
000000b0: 1e4b 533c 8c74 b5bd bd26 743d 15f7 97bd
000000c0: 527a 84bd 131d 613d 9a95 a0bd e8f8 b43c
000000d0: 4862 973d f380 05bd 029a 793d 10ab 04bd
000000e0: 8c54 ab3c 1b12 15bd 6d28 c23d 640c b9bd
000000f0: 17b1 ca3c 4690 e13c 9399 9dbd 1738 79bd
00000100: f874 893d 4aaf 9f3d 24ac 94bd a947 01bd
00000110: 1f87 9c3c f942 cc3b 7b1a 083b f607 c4bc
00000120: 6bcd 77bd 5ca3 95bd 93aa 64bd 9399 c13d
00000130: f1bd cf3d 9a1e d03d 73b2 2fbc b957 05bd
00000140: 567a 273d f56e 57bd c643 95bc 3ce3 213d
00000150: 60f7 d93d c259 87bc a7fe 9cbd d335 a0bd
00000160: eaa4 26bd 6351 a3bd 2664 863d 595b 993b
00000170: 1b99 d13d 24f2 1abd 327f 183d c50b 813d
00000180: 6dc3 7dbd c293 5e3d 0872 a8bc 6c09 773d
00000190: 36dc 533d cf54 2f3c bf57 f83c 8a2c d4bb
000001a0: 1d66 f03b 9ab7 86bd 4f37 74bd d517 beba
000001b0: df8d 8ebd 4fcf d83c 58c6 1bbd df8c dfbd
000001c0: 57f3 993d d1f2 e53c ee84 73bb af93 acbd
000001d0: 0fb7 07bd 01ce 723d 9134 853d 5343 34bc
000001e0: d353 9c3d c2f6 5a3d c672 4cbd 7716 49bd
000001f0: 7d1a 123d 6dc0 8b3a baa0 6bbd b4f1 36bd
00000200: f3fa b13c 1468 233d 584f 163d 9eef 19bc
00000210: ce35 f63c a00e 55bd 5cc9 f7bc fd9d edbc
00000220: cb4e bb3d 022d e5bc a802 15bd 3489 db3c
00000230: 15d6 9e3d 1c69 7d3d ce8b 2a3d f5e1 6ebd
00000240: cd7d 2d3c 759e 0d3d 29a1 8cbd d294 6a3b
00000250: 1c11 563d 4979 49bc b671 03bd 82dc 8bbd
00000260: 37e4 303d 4b31 133d c781 51bc 4099 d4bb
00000270: d7f2 28bd 7588 14bd 88c9 153d 0a49 ebbd
00000280: fecd c13d 34bc 60bd 7778 343c 5840 693d
00000290: 4d0e b5bd d597 3fbd d634 efbd d220 b4bd
000002a0: 20ee a1bc d39a e43c e86d 7e3d 4922 02bc
000002b0: de73 3dbd cc65 85bd bc66 733d 8ce7 26bd
000002c0: ad2d 12bd 090d aabc e5f1 c3bb 8886 813d
000002d0: 84c1 833d 23b0 943d 2d8f e23a 3632 7c3d
000002e0: b87d 513d 7899 943d deec 60bd aef1 5a3d
000002f0: 273c 0c3d 533d dc3c 0948 bebd 6b22 00bd
00000300: f2be 023e 07b4 babc 1fed c9bc 03f1 ac3c
00000310: b551 bdbd 9ac5 27bd 503f cf3c 30b6 80bd
00000320: de54 173d a5ba fbbc f665 86bc ecbb b4bd
00000330: e072 a6bd e3c6 b63c 64c4 7dbc 595b 1d3d
00000340: 6860 80bd d1eb b33c 6ea0 d73b c3ec 8cbc
00000350: 0c79 7e3d 2413 083d 9c82 7fbc a276 7b3b
00000360: 52b0 6cbb 5647 a53d 4ef8 82bd 6268 e83b
00000370: 1550 85bd 0664 5bbb ee0b 95bd b278 bdbc
00000380: 7efc 1abe 8330 713d 7cc8 bf3c 9006 60b9
00000390: dc37 b3bc e3de 1fbd ffe7 ce3c ebb8 8b3d
000003a0: 5bbe 1f3d 41cd f9bc 0810 32bd a24f 6ebd
000003b0: d237 943d 16c1 dc3c c81b b0bc fccb b63c
000003c0: 3eda 523d fc6a 5cbd a945 5fbc 5979 ca3c
000003d0: be9f b6bb 1fc7 96bd 0846 9abd efc7 c4bb
000003e0: 2005 3cbd 38f0 a6bd 96a6 a93d 46c1 3d3d
000003f0: bf03 753c 1247 b0bc 74bf 5ebd cefb 853c

layer2.bias f4 [94]
0.11724618 0.05153243 0.0062583205 -0.01572216 -2.9170602e-05 0.10165227 0.09310489 -0.028111149
-0.022011785 0.099539176 -0.039769053 0.060467508 0.034653638 0.033742115 -0.1718444 -0.016753368
0.068558596 0.015717022 -0.08254908 0.022267295 0.07851123 -0.00834698 0.10516072 -0.05290236
0.013538212 -0.067780696 -0.038180046 -0.09097723 -0.06366591 0.020957759 0.062660374 0.014690706
0.009833538 0.01681314 -0.06490438 0.065656625 0.07409753 -0.06399541 0.04109672 0.0764216
-0.050669625 -0.030388815 0.096044734 0.06391959 -0.054866463 -0.050049026 0.060443517 0.016207932
0.009124648 0.00010795032 0.060956497 0.047443733 0.053089257 0.008964639 0.010221146 -0.015213103
0.10722791 0.030912487 0.07894774 0.13610877 -0.035440166 0.0820807 -0.085509785 -0.015946804
0.0016472517 0.012061028 0.074308105 0.0066851405 0.05489451 0.11704854 -0.021600217 0.029858084
0.0397899 -0.020852981 -0.018720943 0.04270257 -0.00018623761 0.027256746 0.048703548 -0.046357315
0.054410208 -0.04521941 -0.023424428 -0.047925223 0.05451828 -0.09142817 0.08132007 -0.04212426
0.031579114 0.12331004 0.028153133 -0.034284595 -0.0127385 0.012784916
00000000: c41e f03d ab13 533d 9912 cd3b c2cb 80bc
00000010: 64b3 f4b7 112f d03d c7ad be3d 5a49 e6bc
00000020: 0f52 b4bc 32db cb3d e0e4 22bd c7ac 773d
00000030: f9f0 0d3d 2c35 0a3d faf7 2fbe 5c3e 89bc
00000040: 7368 8c3d fcc0 803c 7e0f a9bd e769 b63c
00000050: 7fca a03d c6c1 08bc 815e d73d 25b0 58bd
00000060: 60cf 5d3c 9bd0 8abd ae62 1cbd 4552 babd
00000070: 4663 82bd 9baf ab3c 1554 803d 49b1 703c
00000080: d91c 213c b6bb 893c 96ec 84bd fb76 863d
00000090: 72c0 973d 0710 83bd 0955 283d ee82 9c3d
000000a0: f48a 4fbd f7f1 f8bc 1ab3 c43d 46e8 823d
000000b0: a8bb 60bd 3500 4dbd 9f93 773d 7fc6 843c
000000c0: 8c7f 153c 6363 e238 85ad 793d 5c54 423d
000000d0: 1f74 593d 6ce0 123c 9876 273c 6140 79bc
000000e0: 4e9a db3d 2f3c fd3c 5aaf a13d 1960 0b3e
000000f0: b529 11bd ed19 a83d c11f afbd dfa2 82bc
00000100: 98e8 d73a 9e9b 453c d92e 983d 060f db3b
00000110: 11d9 603d 25b7 ef3d f0f2 b0bc f198 f43c
00000120: bcfa 223d dfd3 aabc aa5c 99bc e4e8 2e3d
00000130: c748 43b9 8a49 df3c 5f7d 473d 2be1 3dbd
00000140: 3ddd 5e3d fd37 39bd 96e4 bfbc 3d4d 44bd
00000150: 8f4e 5f3d b13e bbbd 238b a63d 7d8a 2cbd
00000160: 1a59 013d f989 fc3d 66a1 e63c 016e 0cbd
00000170: 24b5 50bc d377 513c

layer3.weight f4 [23, 94]
-0.032913864 0.07871665 -0.015525121 0.025958376 -0.04372159 -0.07731972 -0.10104509 -0.06711639
-0.14028603 -0.021198161 0.08985819 -0.10080342 0.05342114 0.010222552 0.2455402 -0.14971377
0.05264231 -0.10135669 0.07116878 0.022118732 0.031890754 -0.047695935 -0.052902773 0.10614063
-0.045400165 0.09379314 -0.017976567 0.09879507 0.05662235 -0.020944754 -0.026202783 -0.09220357
0.09856204 0.12591763 -0.059175763 0.007264921 -0.041093513 0.10629231 0.11914697 0.064801335
0.09099453 0.030550526 -0.0042541143 0.12281642 -0.09588247 0.072053745 0.069508635 0.13607407
0.011433502 -0.022680957 0.012142024 0.090922676 -0.07147697 0.073650315 -0.075103074 -0.08359693
-0.028408833 -0.086934425 -0.082590304 0.002369971 0.13575244 -0.018543592 0.12482479 0.037958357
0.027938798 -0.022773132 0.09012624 -0.08851321 -0.025134051 0.14365886 0.11234253 -0.09019753
0.24700178 0.066443205 -0.07989262 -0.059592783 0.0021227992 -0.15914536 -0.0026466486 -0.09326702
-0.067433365 -0.038669515 0.07320949 0.044632867 -0.04161189 0.16334544 0.09795712 0.007401756
0.07282148 0.0058408016 -0.06658926 -0.052755106 0.033612415 0.11732644 -0.10338812 0.06533972
0.015317023 -0.0399563 0.09026203 -0.172041 -0.0046425895 0.0025272893 -0.17117546 -0.06528262
-0.09953343 0.03533429 -0.09883146 0.019829068 0.15695831 -0.06426283 0.055511203 -0.10209845
-0.0015598037 0.09144767 0.008565711 0.07554633 0.025236767 4.7680478e-05 -0.06579743 0.081928045
0.056581542 -0.03845277 0.15151331 0.024042934 0.027331492 0.0314663 0.014670078 0.013494894
0.049958102 0.004223107 -0.015157646 0.012470594 -0.068978295 -0.062793024 0.0653657 0.07410108
0.07790898 -0.042275053 0.05655562 -0.098981954 0.011453195 -0.13940632 0.07064402 0.025246352
-0.13966833 0.0020985752 0.11789086 0.055015154 -0.13534273 -0.055502992 -0.0755022 0.18449116
-0.036375232 -0.07427987 -0.04963644 -0.12182169 0.24352017 0.13843265 -0.12240075 -0.020266633
0.05482839 -0.08116743 -0.049260244 -0.0502325 -0.13727222 -0.01206106 0.07380031 0.11220274
-0.031513963 -0.028246764 -0.09024834 -0.06900252 0.09454322 -0.039059505 -0.122349426 -0.14301558
-0.050128598 0.24514244 0.032627437 0.21712412 0.14217933 0.13575536 -0.039637793 -0.05280478
0.094279036 -0.092665166 -0.040943198 -0.09002579 -0.08019907 -0.062165547 0.0038945458 -0.021398459
-0.015800003 0.1255261 -0.020775607 -0.014126485 0.10985757 -0.060594656 -0.09813003 0.021720562
0.02504837 -0.068229504 -0.0014791422 0.14500245 -0.013962016 -0.07713037 0.06930014 0.062643275
-0.08337644 -0.055200204 0.17358035 0.018508976 0.084325194 -0.0029325965 -0.041231446 -0.044362903
-0.09492172 0.070054725 0.0713282 0.015259452 -0.014021488 0.018027911 -0.10002256 -0.0055377223
0.022352258 -0.03624339 -0.027837425 -0.07599058 0.095596336 0.018132344 0.037768766 -0.04614603
-0.025008608 -0.08235882 0.02657483 -0.019734576 -0.108894184 -0.11595859 0.0828184 0.10137919
0.097705774 -0.06284271 -0.040791225 0.017483702 -0.115669325 -0.016766535 0.027269803 -0.012679468
0.09534752 0.05526471 0.12920673 0.00082391646 0.12896475 -0.08725359 -0.03027885 0.0003311937
00000000: b0d0 06bd 3236 a13d 145d 7ebc a9a6 d43c
00000010: 6915 33bd cd59 9ebd baf0 cebd 5174 89bd
00000020: 24a7 0fbe c4a7 adbc 9207 b83d 0672 cebd
00000030: 20d0 5a3d 7e7c 273c e46e 7b3e 914e 19be
00000040: 769f 573d 1994 cfbd f0c0 913d 5832 b53c
00000050: e19f 023d d05c 43bd 94b0 58bd 4260 d93d
00000060: 86f5 39bd 9e16 c03d 9843 93bc 1255 ca3d
00000070: d6ec 673d 5594 abbc 38a7 d6bc 3ad5 bcbd
00000080: e5da c93d 8df0 003e 4962 72bd 930e ee3b
00000090: ac51 28bd c8af d93d 5403 f43d 90b6 843d
000000a0: 575b ba3d 1945 fa3c 1966 8bbb 2d87 fb3d
000000b0: 075e c4bd ea90 933d 8b5a 8e3d 0057 0b3e
000000c0: 9553 3b3c 6acd b9bc 57ef 463c ab35 ba3d
000000d0: 8562 92bd fad5 963d a4cf 99bd de34 abbd
000000e0: a4b9 e8bc ad0a b2bd 1b25 a9bd 8451 1b3b
000000f0: b002 0b3e bbe8 97bc 24a4 ff3d 397a 1b3d
00000100: e8df e43c b88e babc 1b94 b83d 6a46 b5bd
00000110: ede5 cdbc 4f1b 133e d713 e63d 7cb9 b8bd
00000120: 09ee 7c3e 6013 883d be9e a3bd 9017 74bd
00000130: a91e 0b3b 00f7 22be 6573 2dbb c802 bfbd
00000140: 811a 8abd ed63 1ebd dbee 953d f4d0 363d
00000150: 3b71 2abd 0744 273e be9d c83d 6e8a f23b
00000160: 6e23 953d 3264 bf3b f35f 88bd bd15 58bd
00000170: 2cad 093d d848 f03d 27bd d3bd d5d0 853d
00000180: 40f4 7a3c 38a9 23bd 4ddb b83d 842b 30be
00000190: dd20 98bb e1a0 253b 9f48 2fbe e5b2 85bd
000001a0: 2fd8 cbbd b0ba 103d 2668 cabd 9270 a23c
000001b0: aeb9 203e 3b9c 83bd b75f 633d fe18 d1bd
000001c0: 5472 ccba ea48 bb3d 3257 0c3c 09b8 9a3d
000001d0: 56bd ce3c 86fc 4738 cec0 86bd e4c9 a73d
000001e0: 0cc2 673d a780 1dbd 4e26 1b3e b0f5 c43c
000001f0: 4be6 df3c cfe2 003d c45a 703c b019 5d3c
00000200: dea0 4c3d fd61 8a3b c657 78bc 7651 4c3c
00000210: 7e44 8dbd a199 80bd 74de 853d 4fc2 973d
00000220: be8e 9f3d 9b28 2dbd dea6 673d 0db7 cabd
00000230: 2ea6 3b3c 88c0 0ebe d0ad 903d 70d1 ce3c
00000240: 3705 0fbe 4088 093b c370 f13d 9257 613d
00000250: 4997 0abe 1b57 63bd e6a0 9abd 40eb 3c3e
00000260: 32fe 14bd 0b20 98bd 944f 4bbd a67d f9bd
00000270: 5a5d 793e 4ac1 0d3e 3fad fabd 3606 a6bc
00000280: bc93 603d 1c3b a6bd 1cc5 49bd 98c0 4dbd
00000290: 1791 0cbe c19b 45bc 9e24 973d 8dca e53d
000002a0: c914 01bd c265 e7bc 1fd4 b8bd 3151 8dbd
000002b0: e09f c13d dcfc 1fbd 5692 fabd ad72 12be
000002c0: a553 4dbd 9f06 7b3e 59a4 053d c955 5e3e
000002d0: 7597 113e 7403 0b3e 3d5b 22bd d349 58bd
000002e0: 5e15 c13d 3cc7 bdbd 0eb4 27bd 715f b8bd
000002f0: 693f a4bd 4da1 7ebd a33b 7f3b d24b afbc
00000300: 026f 81bc ea89 003e 9b31 aabc c672 67bc
00000310: 01fd e03d 1a32 78bd 66f8 c8bd 52ef b13c
00000320: 3d32 cd3c e9bb 8bbd c7df c1ba 867b 143e
00000330: f1c0 64bc 87f6 9dbd 3bed 8d3d 1e4b 803d
00000340: 44c1 aabd 9c19 62bd 0cbf 313e 23a0 973c
00000350: b0b2 ac3d ce30 40bb 4ee2 28bd e0b5 35bd
00000360: 5266 c2bd da78 8f3d 8514 923d c802 7a3c
00000370: 62ba 65bc 45af 933c a1d8 ccbd c875 b5bb
00000380: 151c b73c f373 14bd 500b e4bc f3a0 9bbd
00000390: 03c8 c33d 488a 943c 6cb3 1a3d 9f03 3dbd
000003a0: dade ccbc beab a8bd 75b3 d93c 68aa a1bc
000003b0: ea03 dfbd b27b edbd b19c a93d e59f cf3d
000003c0: f719 c83d aeb3 80bd b314 27bd fb39 8f3c
000003d0: 0ae4 ecbd f959 89bc ec64 df3c 8bbd 4fbc
000003e0: 9045 c33d 405d 623d c54e 043e 19fc 573a
000003f0: 560f 043e 03b2 b2bd 5a0b f8bc 11a4 ad39

layer3.bias f4 [23]
-0.10942127 -0.06575523 -0.03585524 0.038130105 0.03145301 0.13865995 0.0531333 -0.011030237
0.0957721 -0.04597463 0.00740757 0.121740386 0.099006325 -0.029960684 0.10987024 -0.07116119
0.014655914 0.13548766 0.2965271 0.041026 -0.09666558 -0.002602399 0.10012594
00000000: 4218 e0bd aeaa 86bd f2dc 12bd 502e 1c3d
00000010: dfd4 003d e0fc 0d3e 4ea2 593d 2bb8 34bc
00000020: 2a24 c43d e54f 3cbd 33bb f23b 0653 f93d
00000030: d4c3 ca3d 1c70 f5bc a603 e13d f5bc 91bd
00000040: 5c1f 703c 47bd 0a3e 66d2 973e e10a 283d
00000050: 9bf8 c5bd 038d 2abb d40e cd3d

layer4.weight f4 [13, 23]
-0.3795435 0.12897193 -0.02091392 -0.048753146 -0.08883975 -0.47512326 0.2598407 0.007265903
-0.20696679 0.034521367 -0.14782037 -0.36215916 -0.17286533 0.05092096 0.035856545 0.09994756
0.08031351 -0.3419624 0.62674505 -0.06529398 0.14442052 0.06480434 -0.12161972 -0.07765659
0.29985064 0.04051813 0.0028183097 -0.0142574655 -0.35412332 0.12868828 0.08348339 0.11288156
-0.037991296 -0.2492238 -0.42335826 -0.21463795 0.042256337 -0.20954373 0.0062587024 0.0019080569
-0.30320072 0.6267981 -0.31628415 -0.14746289 -0.039399493 0.23689757 -0.050136432 -0.19547707
-0.063964285 0.33851722 -0.17569041 -0.04210676 0.016937902 -0.24487069 -0.38466656 -0.12079373
-0.24665779 0.6963402 -0.07503461 -0.3795584 -0.36445564 0.03259222 -0.1802383 0.08815174
0.095584184 0.33023044 0.16766015 -0.128774 0.19635838 0.25046793 -0.22673114 -0.011873541
0.2248019 0.049471155 -0.19992338 0.35906643 -0.11327635 0.36339596 0.13906467 -0.4449913
0.10712632 0.05362413 -0.11474291 -0.06961126 -0.031711552 0.0714099 0.4699908 -0.11939665
-0.31993026 0.06857455 -0.14135051 -0.4958716 -0.30177534 0.095902294 0.13466035 -0.25864065
-0.27435204 0.17922123 -0.009048479 0.19115117 0.20213974 -0.039139837 -0.0077190595 -0.21626829
-0.47661993 -0.36722544 -0.007435401 0.12620606 0.008049424 0.2443596 0.07555803 0.19146979
-0.18060817 -0.30784166 0.11127834 -0.10585449 -0.06236757 -0.10345085 -0.059847698 -0.25535217
0.111919664 -0.040855475 0.07104511 0.17714298 0.03044716 -0.0009620853 -0.13249372 -0.467538
-0.09117443 0.21238802 -0.03619896 -0.010350211 0.23982781 0.10080968 0.11280311 0.0960275
-0.49291548 0.21974435 -0.09504915 -0.1594822 0.020214053 -0.20939389 0.006293147 0.010052426
0.13601607 0.10957949 0.12681977 0.00084030034 0.24156144 -0.0110985255 -0.30408955 -0.42447555
0.20368196 -0.12620735 0.06947354 0.04394525 -0.0153260715 -0.14522904 -0.10752537 -0.38445225
0.17403467 -0.26590702 -0.017038401 -0.071114086 -0.12543014 0.0907359 0.09183973 0.080590494
0.14537601 0.1832326 -0.14457993 0.044656344 0.058568336 -0.41544488 -0.24119575 0.0709263
-0.0984813 -0.08693931 0.06330438 -0.059386827 -0.18708053 0.16670348 -0.31713045 0.23063171
-0.18114862 0.17764407 -0.05428573 0.27761683 0.5451822 0.5568967 -0.5414767 -0.10912406
-0.022144962 -0.6604868 -0.12702471 0.12561537 -0.24675706 -0.25669256 0.21686022 -0.1977856
0.13360868 -0.07484496 0.5273247 -0.12788409 0.018848695 -0.14129394 -0.41008312 -0.102245785
0.14774205 0.070917636 0.07503797 -0.12079161 0.2539985 -0.3143484 -0.23319954 -0.3689573
-0.1041938 -0.2939175 0.5404044 0.06782797 -0.5466217 0.0034431382 -0.2931202 0.18878074
0.13433842 0.55509347 0.07104753 0.130887 -0.017255388 -0.028203748 0.1974263 -0.247286
-0.08614939 0.10035983 -0.21164228 0.024252694 0.4294821 -0.162248 0.4123739 0.07241033
-0.38384935 0.0064670984 0.19385374 -0.10769713 -0.19613208 -0.23710217 0.15899333 0.42636997
-0.07356459 -0.25436586 -0.0321942 0.012222016 -0.52817714 -0.1370387 -0.5829702 0.2997295
00000000: 8753 c2be 3811 043e ab53 abbc 61b1 47bd
00000010: 9df1 b5bd 5b43 f3be d709 853e d016 ee3b
00000020: 1aef 53be 4766 0d3d 395e 17be ed6c b9be
00000030: 9c03 31be 7f92 503d 50de 123d 4eb1 cc3d
00000040: 697b a43d b215 afbe 5d72 203f dab8 85bd
00000050: f9e2 133e 23b8 843d c213 f9bd 6b0a 9fbd
00000060: 0686 993e 57f6 253d 64b3 383b 2598 69bc
00000070: a74f b5be dcc6 033e 57f9 aa3d 732e e73d
00000080: c39c 1bbd 8634 7fbe 6ac2 d8be 0dca 5bbe
00000090: fb14 2d3d a292 56be cd15 cd3b c417 fa3a
000000a0: 203d 9bbe d775 203f ffef a1be 8300 17be
000000b0: 5d61 21bd 4795 723e dc5b 4dbd 242b 48be
000000c0: b5ff 82bd 2152 ad3e 30e8 33be 2378 2cbd
000000d0: 5bc1 8a3c 62bf 7abe 04f3 c4be b462 f7bd
000000e0: dc93 7cbe 5a43 323f bfab 99bd 7b55 c2be
000000f0: ee99 babe 6b7f 053d 6490 38be e688 b43d
00000100: a4c1 c33d f713 a93e 1aaf 2b3e 55dd 03be
00000110: 2c12 493e 553d 803e 352c 68be 3e89 42bc
00000120: 7832 663e 44a2 4a3d b7b8 4cbe 8ed7 b73e
00000130: 6efd e7bd 090f ba3e f866 0e3e e6d5 e3be
00000140: 0b65 db3d faa4 5b3d 55fe eabd 5990 8ebd
00000150: f9e3 01bd 5b3f 923d a2a2 f03e 3b86 f4bd
00000160: e6cd a3be d070 8c3d 30be 10be e2e2 fdbe
00000170: 4c82 9abe 6c68 c43d 67e4 093e 8c6c 84be
00000180: df77 8cbe c585 373e 1240 14bc 22bd 433e
00000190: b8fd 4e3e 1851 20bd 2af0 fcbb 6f75 5dbe
000001a0: 8707 f4be f904 bcbe aaa4 f3bb 293c 013e
000001b0: bbe1 033c 6739 7a3e 2bbe 9a3d a810 443e
000001c0: 59f1 38be 6c9d 9dbe e6e5 e33d 3dca d8bd
000001d0: 2375 7fbd 0ade d3bd dc22 75bd 85bd 82be
000001e0: 2336 e53d 1258 27bd 1980 913d f864 353e
000001f0: 536c f93c 7434 7cba 6fac 07be 2461 efbe
00000200: a9b9 babd 3f7c 593e 5c45 14bd ee93 29bc
00000210: 6c95 753e 4e75 ce3d 5105 e73d 11aa c43d
00000220: 6b5f fcbe aa04 613e 21a9 c2bd 4d4f 23be
00000230: f197 a53c 5a6b 56be be36 ce3b eeb2 243c
00000240: cc47 0b3e 366b e03d 0bdd 013e 9a47 5c3a
00000250: e25b 773e 97d6 35bc a0b1 9bbe dc54 d9be
00000260: 0192 503e 803c 01be 2548 8e3d efff 333d
00000270: 341a 7bbc ecb6 14be 4336 dcbd edd6 c4be
00000280: 2536 323e f724 88be 1e94 8bbc 43a4 91bd
00000290: c270 00be bed3 b93d 7816 bc3d a10c a53d
000002a0: 73dd 143e 54a1 3b3e c30c 14be 92e9 363d
000002b0: 5ae5 6f3d 31b5 d4be 05fc 76be cf41 913d
000002c0: 90b0 c9bd 3d0d b2bd baa5 813d 9a3f 73bd
000002d0: 0a92 3fbe 51b4 2a3e ec5e a2be b82a 6c3e
000002e0: 067f 39be 54e8 353e b75a 5ebd cb23 8e3e
000002f0: 1091 0b3f c890 0e3f 389e 0abf 6f7c dfbd
00000300: 5a69 b5bc aa15 29bf c412 02be 51a1 003e
00000310: e2ad 7cbe 356d 83be 9b10 5e3e 4f88 4abe
00000320: b7d0 083e 5048 99bd c0fe 063f 0cf4 02be
00000330: 9468 9a3c 5caf 10be 6af6 d1be 3d66 d1bd
00000340: b149 173e 443d 913d 82ad 993d 9761 f7bd
00000350: 170c 823e 46f2 a0be dccb 6ebe f9e7 bcbe
00000360: 8f63 d5bd 5b7c 96be f157 0a3f 64e9 8a3d
00000370: 66ef 0bbf 46a6 613b da13 96be bd4f 413e
00000380: 0390 093e 9b1a 0e3f 5e81 913d 3e07 063e
00000390: 2c5b 8dbc 8c0b e7bc 1f2a 4a3e 8b38 7dbe
000003a0: 176f b0bd 7489 cd3d c1b8 58be 96ad c63c
000003b0: 14e5 db3e 5724 26be ac22 d33e de4b 943d
000003c0: e787 c4be f4e9 d33b 9881 463e 5090 dcbd
000003d0: d9d6 48be e9ca 72be 26cf 223e 2a4d da3e
000003e0: 08a9 96bd 3e3c 82be 11de 03bd da3e 483c
000003f0: 9e36 07bf df53 0cbe 893d 15bf 2576 993e

layer4.bias f4 [13]
0.49196824 0.24893948 0.13922973 0.18311954 0.016047992 -0.16582304 0.28578407 0.25673175
-0.04460689 0.123780884 0.15625754 0.25090885 -0.11109552
00000000: 43e3 fb3e fee9 7e3e 3d92 0e3e b083 3b3e
00000010: 1477 833c 84cd 29be 4a52 923e 5872 833e
00000020: b7b5 36bd d580 fd3d fa01 203e 2077 803e
00000030: 0c86 e3bd
